submission/best_model.pth (torch, 789611 bytes, 11 tensors)

_logits._model.0.weight f4 [19, 256]
0	0x3e4dd8a3	0.20102172
1	0x3e1d82d7	0.15381943
2	0x3e68c929	0.22732987
3	0x3e2857d8	0.1643976
4	0x3c862c11	0.016378434
5	0xbe3fab44	-0.18717676
6	0x3d9f92a1	0.07791639
7	0x3e0cbd7b	0.13744156
8	0xbd91fcd4	-0.07128301
9	0x3dad2e04	0.084560424
10	0xbd56bc66	-0.052425765
11	0xbdd96d7e	-0.10616587
12	0xbd5a94d9	-0.05336461
13	0x3e5e89db	0.21732275
14	0xbe7b3b4f	-0.24534343
15	0xbe9a1557	-0.30094406
16	0xbd8f882b	-0.07008394
17	0xbd9eb590	-0.07749474
18	0x3d94b88f	0.07261764
19	0x3dcfaf14	0.101408154
20	0xbc83866c	-0.016055308
21	0xbc8efdd2	-0.017455015
22	0x3c97d2fb	0.01853322
23	0xbca951fc	-0.020668976
24	0x3caf3361	0.021386804
25	0xbc48d1d5	-0.012257059
26	0xbce262a4	-0.027634926
27	0xbde2f2b7	-0.110814504
28	0xbe0ead7e	-0.1393337
29	0xbe535b7b	-0.20640366
30	0x3e1fcd26	0.15605602
31	0xbe397a66	-0.18113098
32	0xbe8fd126	-0.28089255
33	0x3de0f145	0.109835185
34	0xbd3af555	-0.045644123
35	0x3db20d43	0.08693936
36	0xbc8eeaae	-0.017445888
37	0x3c3879ab	0.011259477
38	0x3e064a8e	0.13114378
39	0x3dfa63c6	0.122260615
40	0xbe22cec7	-0.15899192
41	0x3dd47427	0.10373717
42	0x3e113cfd	0.14183421
43	0x3d762b20	0.06009972
44	0xbe69a86e	-0.22818157
45	0x3deb199c	0.11479494
46	0x3d40c5af	0.047063526
47	0xbc7ed65f	-0.01555404
48	0x3e5c58af	0.21518205
49	0xbcc7c731	-0.024386974
50	0xbd111143	-0.035416853
51	0xbe03f485	-0.12886246
52	0x3dd3ccb3	0.10341778
53	0x3d0a4a76	0.033762418
54	0xbe15eb5b	-0.14640562
55	0xbdc44b39	-0.0958466
56	0xbe17f3c8	-0.14839089
57	0x3c894bf0	0.016759843
58	0xbe1f5db4	-0.15563089
59	0x3ddea31d	0.10870955
60	0xbec88e33	-0.3917099
61	0xbe29c17e	-0.16577718
62	0x3ea8efea	0.3299554
63	0xbd8a0cc7	-0.06740718
64	0x3dff49f4	0.12465277
65	0x3e782637	0.24233328
66	0xbc725fd8	-0.014793359
67	0x3dee0140	0.11621332
68	0xbc0eeafb	-0.008723016
69	0x3e00cf76	0.1257914
70	0xbd3036cb	-0.043021005
71	0x3e8e541b	0.27798542
72	0xbd816b9d	-0.06319354
73	0x3d967ccb	0.07348021
74	0xbd3f2449	-0.046665464
75	0xbe116c41	-0.14201452
76	0x3e9aa66d	0.30205098
77	0xbdf3052c	-0.11866221
78	0x3cdf9b1a	0.027295638
79	0x3e0385ca	0.12844005
80	0xbe77b483	-0.24189954
81	0x3c34de88	0.011039384
82	0xbe32cd8a	-0.1746122
83	0xbd4ea0bd	-0.05044626
84	0xbe85ab64	-0.26107323
85	0xbe0c6e26	-0.13713893
86	0x3e499d9d	0.19689031
87	0x3e033aa0	0.12815332
88	0xbdf60bc6	-0.12013964
89	0x3d021cda	0.031765796
90	0xbdc99e0a	-0.09844597
91	0x3e40de28	0.18834746
92	0x3d52b074	0.05143781
93	0xbc502a02	-0.012705328
94	0x3ddcadbe	0.10775326
95	0x3e7ef093	0.2489646
96	0x3d76860c	0.06018643
97	0x3e8038fc	0.25043476
98	0x3dc46658	0.09589833
99	0xbd81641c	-0.063179225
100	0xbdb05479	-0.08609862
101	0x3dcafd55	0.099116005
102	0xbda79b5f	-0.081839316
103	0x3e25b721	0.1618314
104	0xbc2f3fa8	-0.010696329
105	0xbdc5a9ca	-0.09651525
106	0xbe17c851	-0.14822508
107	0x3c876225	0.016526291
108	0x3e64fecc	0.22362822
109	0x3e61d0fa	0.22052374
110	0x3d9c3b95	0.07628552
111	0xbd7996a0	-0.060934663
112	0x3dbe6003	0.092956565
113	0xbd138467	-0.03601494
114	0xbd3c326a	-0.045946516
115	0x3e26d05e	0.16290423
116	0x3e304fc9	0.17217936
117	0x3e15f88f	0.14645599
118	0xbd848c0a	-0.06472023
119	0xbd3898f4	-0.045067742
120	0x3ded7329	0.11594231
121	0x3e31ef43	0.17376427
122	0xbe3ab009	-0.18231215
123	0x3d259a3f	0.040430304
124	0xbd8b3fce	-0.06799279
125	0xbe4f42bf	-0.20240305
126	0xbdadf720	-0.08494401
127	0x3dd2a005	0.102844276
128	0x3da01b6a	0.07817729
129	0x3e17af98	0.14813077
130	0xbd5ecba2	-0.054393418
131	0xbd898314	-0.06714454
132	0xbe842c96	-0.25815266
133	0xbdf4ce60	-0.119534254
134	0xbcbf1f7c	-0.023330443
135	0xbe2fe9f4	-0.1717909
136	0x3d2693fb	0.04066847
137	0xbe2937e2	-0.16525224
138	0x3d14b64b	0.03630666
139	0xbe51efa5	-0.20501573
140	0xbe3bcc30	-0.1833961
141	0xbc808417	-0.015687985
142	0x3e0f3502	0.13985065
143	0x3d90146d	0.07035146
144	0x3d01653a	0.031590678
145	0x3c7b4c95	0.015338083
146	0x3e06f572	0.13179567
147	0x3d128692	0.035772868
148	0x3d8bf029	0.06832916
149	0xbce66af3	-0.02812717
150	0xbd977407	-0.07395177
151	0xbd8b47ae	-0.06800781
152	0xbe19c9db	-0.15018408
153	0x3e722473	0.23646717
154	0xbd897a8d	-0.06712828
155	0x3d3603ac	0.044437096
156	0xbe3fddf9	-0.1873702
157	0x3d8b2042	0.06793262
158	0xbd5b3ca4	-0.05352463
159	0xbe6c47ee	-0.23074314
160	0x3e9db633	0.3080307
161	0xbdebe968	-0.11519128
162	0xbdae0e61	-0.08498836
163	0xbe2db704	-0.16964346
164	0xbc0d7090	-0.008632794
165	0xbe4646c2	-0.1936293
166	0x3db5ab18	0.08870524
167	0xbeabd4b1	-0.33560708
168	0x3e210871	0.15725876
169	0x3c7a40f3	0.015274274
170	0xbea87746	-0.32903498
171	0x3d03d097	0.03218135
172	0xbe7a3a46	-0.24436292
173	0x3da4a6b9	0.08039612
174	0xbe0b19f7	-0.13584124
175	0x3c28531f	0.010273724
176	0x3dbab2d1	0.09116138
177	0xbe28a24a	-0.16468158
178	0xbd83f34f	-0.06442892
179	0xbd821d47	-0.063532405
180	0xbd1a6e02	-0.037702568
181	0xbdd3bc31	-0.10338629
182	0x3e10035b	0.1406378
183	0xbe478fbc	-0.19488424
184	0xbd9f0144	-0.07763913
185	0xbd4ea51d	-0.050450433
186	0xbc299638	-0.010350756
187	0xbd9366c9	-0.07197339
188	0x3dc13504	0.0943394
189	0x3dab4af7	0.08363908
190	0xbdad559e	-0.08463596
191	0xbd9945bc	-0.07484004
192	0xbdabca01	-0.083881386
193	0x3dad13e7	0.08451062
194	0xbd837dba	-0.06420465
195	0xbe1d1f3f	-0.1534395
196	0x3d62b977	0.055352654
197	0xbde07a56	-0.10960834
198	0xbe34ff8e	-0.17675611
199	0x3c81a8e9	0.015827613
200	0xbda90eb0	-0.082547545
201	0xbe28c2fa	-0.16480628
202	0x3d5962eb	0.05307285
203	0xbd906be1	-0.07051826
204	0xbea39b01	-0.31954196
205	0xbddc7c26	-0.10765867
206	0x3e082687	0.13295947
207	0xbd3c0b14	-0.045909002
208	0xbea8b2a3	-0.3294879
209	0x3df43101	0.11923409
210	0x3d5e3744	0.054251924
211	0x3da64c00	0.081199646
212	0x3d951b2b	0.072805725
213	0xbd772d15	-0.060345728
214	0xbd49e7a8	-0.04929319
215	0x3d3a7706	0.045523666
216	0x3d6988e4	0.057015315
217	0xbd205946	-0.039147638
218	0xbc87b50b	-0.01656582
219	0xbe835662	-0.25651842
220	0xbe2461fe	-0.16053006
221	0x3b0f8a8f	0.0021902656
222	0x3ea794c0	0.32730675
223	0xbcacf86f	-0.021114556
224	0x3de9d73e	0.11418007
225	0x3dfceb39	0.12349553
226	0x3c8dea33	0.017323589
227	0x3c3f3ae2	0.011671754
228	0xbcf97376	-0.030450564
229	0x3db811b5	0.08987752
230	0xbe0928a6	-0.13394412
231	0xbe34a461	-0.1764083
232	0xbd181709	-0.037131343
233	0xbde37e41	-0.111080654
234	0x3d2aa32f	0.04165953
235	0xbda3304f	-0.079681985
236	0xbdb1ae6c	-0.086758465
237	0x3ec7de0c	0.39036596
238	0xbd2821fa	-0.041048028
239	0xbd341af1	-0.043971006
240	0x3d8ebc03	0.06969454
241	0x3de84d28	0.113428414
242	0xbc8c21ca	-0.017105956
243	0xbd98d93b	-0.074633084
244	0x3dde919c	0.108676165
245	0xbc6bb1fc	-0.0143856965
246	0x3cba7aea	0.022763688
247	0x3cb468b3	0.02202258
248	0x3e3ed4cd	0.18635865
249	0x3cc6dd3c	0.024275415
250	0xbdf30328	-0.118658364
251	0x3dfa2b04	0.12215236
252	0x3d4d2660	0.050085425
253	0xbe0b35f0	-0.13594794
254	0xbea775d1	-0.32707074
255	0x3cb2e723	0.02183873

_logits._model.0.bias f4 [19]
0	0xbd9c57f6	-0.07633965
1	0x3d6d3fdc	0.05792223
2	0xbd9af2dc	-0.07565853
3	0x3d23f819	0.040031526
4	0x3d7e6613	0.062109064
5	0xbd443b93	-0.047908377
6	0xbce2104e	-0.027595665
7	0xbbbd2175	-0.0057718107
8	0x3d5f89b1	0.054574672
9	0x3c1f379c	0.009717848
10	0xbc6721bd	-0.014107165
11	0xbb87f96d	-0.004149607
12	0x3c0e0ddb	0.008670296
13	0xbd8cacd9	-0.068689056
14	0x3c962254	0.018326916
15	0xbba43d93	-0.005012223
16	0xbc4908f9	-0.012270206
17	0x3cdd46e2	0.027011339
18	0x3cad0869	0.021122174

_hidden_layers.0._model.0.weight f4 [256, 115]
0	0xbc925726	-0.017863821
1	0x3e872055	0.26391855
2	0x3c45c825	0.012071644
3	0x3d7ac280	0.061220646
4	0x3d8ab840	0.06773424
5	0xbe20a9ff	-0.15689848
6	0xbe6495d9	-0.22322787
7	0x3e002d3b	0.12517254
8	0xbe99bbe8	-0.30026174
9	0xbbf2bda8	-0.0074078627
10	0x3d2c0f69	0.042006884
11	0xbd6970ab	-0.056992214
12	0x3e1d9457	0.15388618
13	0x3d58c798	0.052924722
14	0x3d467f4f	0.048461255
15	0x3cde0b86	0.027105104
16	0xbdbd013e	-0.092287526
17	0x3ba2b249	0.004965101
18	0xbd2bebb4	-0.04197283
19	0xbe5a0582	-0.21291164
20	0x3dd4bfa2	0.103881136
21	0x3b5198d4	0.0031981962
22	0xbe7945d4	-0.24343044
23	0x3d8f639e	0.07001422
24	0x3e30983b	0.17245571
25	0xbe2c2c18	-0.16813695
26	0xbd610464	-0.054935828
27	0xbde7493d	-0.11293266
28	0x3eb07ded	0.34471074
29	0xbe2e691f	-0.17032288
30	0x3e294fb9	0.16534318
31	0xbe651602	-0.22371677
32	0x3dccf839	0.10008282
33	0x3d4b3fd2	0.04962141
34	0xbc51d8f8	-0.012808077
35	0x3dc62eaa	0.09676869
36	0x3da2bb02	0.07945825
37	0x3dba38cb	0.09092864
38	0x3ad65606	0.0016352541
39	0x3da1ea56	0.07906024
40	0xbdb09368	-0.086218655
41	0x3d084fc3	0.03327919
42	0x3cae7472	0.02129576
43	0xbd1f7f55	-0.038939793
44	0x3b0232ac	0.0019866629
45	0xbe7bc89b	-0.24588244
46	0x3e01b0c8	0.12665093
47	0xbe4a95c0	-0.19783688
48	0x3da9fdff	0.08300399
49	0xbb466777	-0.0030274072
50	0xbdf9ef62	-0.12203862
51	0x3c7f4d16	0.015582344
52	0x3e9baa4e	0.3040337
53	0x3e5cc194	0.21558219
54	0x3e1d86a3	0.15383391
55	0x3d47ceab	0.04878108
56	0x3d50919c	0.050920114
57	0xbd919a4e	-0.071095094
58	0x3e0b89d8	0.13626802
59	0xbc70914f	-0.014683082
60	0x3d16a79c	0.03678094
61	0xbe14df71	-0.14538361
62	0x3db24631	0.08704794
63	0xbd5695ee	-0.052389078
64	0xbd4b4433	-0.049625587
65	0xbc4604e9	-0.012086132
66	0x3eb9bcde	0.36276907
67	0x3e7ef9c4	0.24899966
68	0xbd69d9ee	-0.0570926
69	0x3cb48f29	0.02204092
70	0xbdfd104d	-0.12356625
71	0x3d06beec	0.03289692
72	0x3eba9ba2	0.36446863
73	0xbe53541a	-0.20637551
74	0xbe5470e7	-0.20746194
75	0xbd72997b	-0.0592284
76	0x3e8fff01	0.2812424
77	0x3d24800c	0.040161178
78	0xbc9f9a28	-0.019482687
79	0xbda5661a	-0.08076115
80	0xbde1b510	-0.11020863
81	0x3de90840	0.11378527
82	0x3b222c6b	0.0024745713
83	0xbb655810	-0.0034995116
84	0x3d2f9167	0.042863276
85	0x3db9895f	0.090594046
86	0xbd089d26	-0.033352993
87	0xbd0f2042	-0.034942873
88	0x3deb2fbd	0.11483715
89	0x3d50b979	0.05095813
90	0x3da44cc8	0.08022457
91	0x3eac8224	0.3369304
92	0x3e858158	0.26075244
93	0x3c9b34a5	0.018946001
94	0xbd4460df	-0.047943946
95	0x3cb0749f	0.021539984
96	0xbe5a994a	-0.21347538
97	0x3cefb168	0.029259399
98	0x3f2293db	0.6350686
99	0xbd846833	-0.06465187
100	0x3eb7b1fe	0.35877985
101	0xbeebe8dd	-0.46076098
102	0x3e068657	0.13137184
103	0xbcfe213f	-0.031021712
104	0xbe676c39	-0.22599877
105	0x3c9f3fde	0.019439634
106	0x3c325070	0.010883436
107	0xbd683aa0	-0.056696534
108	0xbe55c1c8	-0.20874703
109	0xbe3967f0	-0.18106055
110	0x3e81430f	0.25246474
111	0x3e4f9319	0.20270957
112	0xbcd89c7f	-0.02644181
113	0x3e56f819	0.20993079
114	0xbe3e68ad	-0.18594618
115	0x3cebd241	0.02878678
116	0x3e2b897a	0.16751662
117	0x3f194290	0.5986719
118	0x3daab132	0.083345786
119	0x3eac868a	0.33696395
120	0x3e4d49e3	0.20047717
121	0x3cdf64a0	0.027269661
122	0xbe64053e	-0.22267625
123	0x3d876740	0.0661149
124	0x3e84737a	0.25869352
125	0x3d84c5c5	0.06483034
126	0xbdb009f3	-0.08595648
127	0xbdce9851	-0.10087646
128	0x3c9b43ea	0.018953282
129	0xbbdd41d3	-0.0067522316
130	0xbe21bd65	-0.15794905
131	0xbdfbb9ee	-0.12291323
132	0x3d090dce	0.03346043
133	0xbd0ac8f3	-0.033883046
134	0x3c8e3373	0.017358517
135	0xbdc94ba5	-0.09828881
136	0xbd56dacb	-0.05245475
137	0x3dd5b4c5	0.1043487
138	0x3e3fed61	0.18742897
139	0x3d215ed6	0.039397083
140	0xbe49d44f	-0.19709896
141	0x3de1d286	0.11026482
142	0x3df68566	0.120371625
143	0xbdea4f02	-0.11440851
144	0x3e31cf5b	0.17364256
145	0x3d11c013	0.035583567
146	0x3de9c6bc	0.11414859
147	0x3dd8f2d7	0.10593193
148	0xbdd614ab	-0.10453161
149	0xbde38bc3	-0.11110642
150	0xbcfdbe45	-0.030974517
151	0x3dbb4b5c	0.09145233
152	0xbe19e2aa	-0.15027872
153	0xbc28a97c	-0.0102943145
154	0x3cd6c5ba	0.02621733
155	0xbccbbb89	-0.024869697
156	0xbe06bd3d	-0.13158126
157	0xbe1ffc3c	-0.15623564
158	0xbd5ed350	-0.054400742
159	0x3ce2835e	0.027650531
160	0xbeadb4d1	-0.33927014
161	0x3e3471c2	0.1762152
162	0xbebf57ac	-0.37371576
163	0x3d849479	0.064736314
164	0xbdfbc815	-0.12294022
165	0x3e3054ac	0.172198
166	0xbd120964	-0.035653487
167	0x3eb4fda1	0.35349753
168	0xbc87121e	-0.016488131
169	0x3d10d30d	0.035357524
170	0xbdd33b80	-0.10314083
171	0xbce6390f	-0.02810338
172	0xbdee5752	-0.11637749
173	0x3ca72963	0.020405477
174	0x3c828ef6	0.01593731
175	0xbd5256ae	-0.051352195
176	0xbd34f85d	-0.04418217
177	0xbe1a9374	-0.15095311
178	0x3d7fbae4	0.062434092
179	0xbdb2bb7f	-0.08727168
180	0xbd570aed	-0.052500654
181	0x3edd9263	0.43275747
182	0x3eed5e38	0.46360946
183	0x3e079f0b	0.13244264
184	0xbdc74aba	-0.0973105
185	0xbe4e2c72	-0.20134142
186	0x3dc08b38	0.09401554
187	0x3cd3a94e	0.025837567
188	0xbe4ed462	-0.20198205
189	0x3e83797b	0.2567862
190	0x3d75fd5d	0.06005608
191	0xbe31d8cb	-0.17367856
192	0x3d60fe0f	0.05492979
193	0x3d925b03	0.07146265
194	0x3d39be5d	0.04534756
195	0xbd1f2e6f	-0.038862642
196	0x3d726a79	0.05918357
197	0x3e16412e	0.14673302
198	0xbe1524ed	-0.14564867
199	0xbd2a0cda	-0.041516162
200	0x3caef224	0.021355696
201	0x3dcaf58e	0.09910117
202	0x3c930ad2	0.017949495
203	0x3e319911	0.17343546
204	0xbe37478d	-0.17898388
205	0xbe71e19a	-0.23621216
206	0xbee9d6ea	-0.4567178
207	0x3d6c4eb7	0.057692256
208	0x3da630ef	0.08114802
209	0xbd099479	-0.03358886
210	0xbda40592	-0.08008875
211	0x3cf5b5de	0.029993948
212	0xbd41d4d1	-0.0473221
213	0xbe9b6316	-0.30349034
214	0x3e8a0054	0.26953375
215	0x3e303d96	0.17210993
216	0xbc1098ff	-0.00882554
217	0xbc557b1b	-0.013029839
218	0xbdb322de	-0.08746885
219	0xbe12fa60	-0.14353323
220	0x3c5ebac2	0.013594331
221	0x3d865c18	0.06560534
222	0x3da420df	0.08014082
223	0x3d4667d6	0.04843887
224	0xbdc8088e	-0.09767257
225	0x3d3ed80e	0.046592765
226	0x3ecae4ac	0.39627588
227	0xbe2d2720	-0.16909456
228	0xbe68e9ac	-0.22745389
229	0xbdec8215	-0.11548249
230	0xbc63b986	-0.013899213
231	0x3ed0ff61	0.4081984
232	0x3ecae295	0.39625993
233	0x3e8a972e	0.27068466
234	0x3d13e389	0.036105666
235	0xbc9233ea	-0.01784702
236	0xbd969d6c	-0.073542446
237	0x3ec88c7e	0.39169687
238	0xbe5cbf0c	-0.21557254
239	0x3d89d644	0.06730321
240	0x3d1a6f80	0.03770399
241	0x3cbd964b	0.023142954
242	0x3d4914da	0.04909215
243	0x3e136cc0	0.14396954
244	0xbdef1e6d	-0.11675725
245	0xbc2a51ea	-0.010395506
246	0xbe66b4ed	-0.22529955
247	0xbe17c127	-0.14819776
248	0xbce13ab9	-0.027493821
249	0x3ba68a93	0.0050824373
250	0xbd0cb0ae	-0.034348182
251	0x3e241413	0.16023283
252	0x3e441d85	0.19151886
253	0x3d5dbfab	0.054137867
254	0x3e472fc7	0.1945182
255	0xbe496cd3	-0.1967042

_hidden_layers.0._model.0.bias f4 [256]
0	0xbd2060e8	-0.039154917
1	0x3cfa5921	0.030560078
2	0x3cf2b00d	0.029624963
3	0x3bb10922	0.0054027
4	0x3c9becdf	0.019033847
5	0xbca494d8	-0.020090505
6	0x3b190ae3	0.0023352436
7	0x3ba0e3dc	0.0049099755
8	0xbb9f0983	-0.004853429
9	0x3c528261	0.012848468
10	0x3b9556bb	0.004557458
11	0x3bfd44ca	0.0077291476
12	0xba304100	-0.0006723553
13	0x3c56b6c0	0.013105094
14	0x3b310215	0.0027009298
15	0x3b1a69c5	0.0023561579
16	0x3c2ec9a1	0.010668189
17	0xbcfc594f	-0.030804304
18	0x3c5d5ae0	0.013510436
19	0x3d1227d6	0.03568252
20	0xb7e73e9f	-2.7566506e-05
21	0x3cbc2302	0.022965912
22	0xbc2fbe95	-0.010726591
23	0x3c5c5c8b	0.013449798
24	0xba8f46ee	-0.0010931173
25	0x3bd8794d	0.006606257
26	0x3bbc2032	0.0057411427
27	0xbc12d437	-0.008961729
28	0x3bf1cdd4	0.007379273
29	0x3c0f2cd4	0.008738715
30	0xbc472dde	-0.012156932
31	0x38a0af47	7.6620425e-05
32	0x3bdc19c2	0.0067169378
33	0x3bfc29b7	0.0076954025
34	0xbc46173c	-0.0120905
35	0x3cf28455	0.029604116
36	0x3bf9f7dc	0.007628424
37	0x3c07afd1	0.008281664
38	0xbb7d45c6	-0.0038646325
39	0x3ca388ca	0.019962687
40	0x3cb4b24f	0.02205768
41	0x3c758fc1	0.014987887
42	0xbc9c21c9	-0.019059079
43	0x3c5dc575	0.013535847
44	0x3b23dcab	0.0025003355
45	0x3af181e7	0.0018425555
46	0xbcd1e9de	-0.025624212
47	0xbc340260	-0.010986894
48	0x3b3a4ced	0.00284272
49	0x3ca24c17	0.019811673
50	0x3bf59dd1	0.00749562
51	0x3be3b364	0.0069488753
52	0x3b3087ca	0.0026936405
53	0x3cf7597d	0.030194039
54	0xbc2c998b	-0.010534654
55	0x3ce6ca58	0.028172657
56	0x3b396558	0.0028289165
57	0xbcce4611	-0.025179895
58	0x3c5fb8ca	0.013654897
59	0x3bb80bae	0.0056166267
60	0xbc5828ab	-0.01319329
61	0xbbb49ce7	-0.0055118683
62	0xba0fe439	-0.0005489025
63	0xbbab6764	-0.005230831
64	0xbc9ab46b	-0.018884858
65	0x3c421aef	0.011847242
66	0xbc3d66f0	-0.011560187
67	0xbcd9675b	-0.026538542
68	0xbc8f4b12	-0.017491851
69	0xbc42a56c	-0.01188026
70	0x3be5d572	0.00701397
71	0x3cbd4016	0.023101848
72	0x3c89c449	0.016817229
73	0xbccdc99e	-0.025120553
74	0xbc8c316f	-0.017113416
75	0x3c7a11ef	0.015263065
76	0xbc85809e	-0.016296681
77	0x39b140f4	0.00033808465
78	0x3bfb1fe9	0.007663716
79	0xbb637b99	-0.003471112
80	0xbc62073e	-0.013795672
81	0xbbfb75de	-0.007673963
82	0xbc357108	-0.011074312
83	0xbca5c1c6	-0.020234
84	0xbd0a209d	-0.03372251
85	0xbc4c142a	-0.012455979
86	0x3bd51745	0.006503018
87	0xbbb02119	-0.0053750393
88	0x3cea71f0	0.028618783
89	0xbc24ff16	-0.010070583
90	0x3cac308e	0.021019246
91	0x3ca7f3b8	0.020501956
92	0xbbca9b85	-0.00618309
93	0xbb810572	-0.0039374167
94	0xbcbc012b	-0.022949776
95	0x3c23feaf	0.010009452
96	0x3b631f99	0.0034656285
97	0x3c6eade6	0.014567828
98	0x3b27bee8	0.0025595967
99	0x3b0445ee	0.0020183283
100	0x3c786dc0	0.015162885
101	0x3b93113c	0.0044881385
102	0xbc841275	-0.016122082
103	0xbca92131	-0.02064571
104	0x3c3895fa	0.011266226
105	0xbc4cf5c3	-0.012509766
106	0x3c2c8816	0.010530492
107	0xbd09b8b9	-0.03362343
108	0xbc5b5056	-0.013385853
109	0x3baf3ea8	0.0053480454
110	0xb9836844	-0.0002506395
111	0xbcfb7856	-0.03069703
112	0x3cac7c7f	0.021055458
113	0x3c971ac5	0.018445382
114	0x3c0e064a	0.008668492
115	0x3c472385	0.012154465
116	0x3cca54ae	0.024698582
117	0x3b014644	0.001972572
118	0xbab6a268	-0.0013933899
119	0x3c93a43f	0.018022655
120	0x3b71edf4	0.0036915513
121	0x39653355	0.00021858265
122	0xbcc33b09	-0.023831861
123	0xbd2db8c9	-0.042412553
124	0xbc92ca35	-0.017918685
125	0xbca8ae7e	-0.020591017
126	0xbbafc636	-0.0053642048
127	0x3c0b5499	0.008504056
128	0xbc15808f	-0.009124889
129	0xbd34853f	-0.044072386
130	0x3cbb6dc3	0.022879487
131	0xbabcbfae	-0.0014400387
132	0x3bd3ba64	0.0064614285
133	0xbc2e2256	-0.0106283035
134	0xbb784f80	-0.0037889183
135	0xb974a5d1	-0.00023331425
136	0x3c8007f6	0.015628796
137	0xbb1bf73d	-0.0023798489
138	0xbd278a47	-0.040903356
139	0xbcc6ed1f	-0.02428299
140	0xbcd47b12	-0.02593759
141	0x3b15917e	0.0022822316
142	0xba15d5cc	-0.0005715757
143	0x3c974b70	0.018468589
144	0xbc9b96e7	-0.018992854
145	0xbcd37bfd	-0.025815958
146	0x3c24bc04	0.010054592
147	0xbcdfe05c	-0.027328663
148	0xbcac657f	-0.02104449
149	0xba99741a	-0.0011707575
150	0xbcb3f80b	-0.021968862
151	0xbbecbd3a	-0.007224706
152	0x3a64220b	0.00087025826
153	0xbc953e2c	-0.018218122
154	0xbcac3db5	-0.021025518
155	0xba3a6252	-0.0007109988
156	0xbc7c0746	-0.0153825935
157	0xbd1727f4	-0.036903337
158	0xbc1feb14	-0.009760637
159	0xb9ee18c2	-0.00045413343
160	0x3c732171	0.014839516
161	0xbb75f17d	-0.0037527971
162	0xbc761747	-0.015020198
163	0xbbbca090	-0.005756445
164	0xbc78370d	-0.015149844
165	0xbce8ed91	-0.028433593
166	0x3b7d3281	0.003863484
167	0x3b918104	0.0044404287
168	0x3abd8e85	0.001446203
169	0x3c8a53c0	0.016885638
170	0xba065697	-0.0005124597
171	0xbd4da5a4	-0.050206795
172	0xbc9efc1e	-0.019407328
173	0x3d2282b7	0.03967544
174	0x3ce2ca86	0.027684461
175	0x3c380f02	0.011234047
176	0x3b97335b	0.0046142763
177	0xbbe7fff7	-0.007080074
178	0xbc0e74c3	-0.00869483
179	0xbcc596fd	-0.024119848
180	0xbc5db82c	-0.0135326795
181	0x3ca96819	0.02067952
182	0xbc6b880a	-0.014375696
183	0xbc1c0454	-0.009522516
184	0xbc61c961	-0.013780923
185	0x397e4a88	0.00024251093
186	0xb993e2e3	-0.0002820707
187	0xbd031c57	-0.03200945
188	0xbbee89de	-0.0072796186
189	0xbb802158	-0.003910225
190	0xbab62f8b	-0.0013899667
191	0x3c4e9e31	0.012610958
192	0x3b58fa16	0.0033108047
193	0xbb8fd570	-0.0043894574
194	0xbc0562d4	-0.008141238
195	0xbd21b389	-0.03947786
196	0x3c073bcc	0.008254003
197	0x3bb3b848	0.0054846145
198	0xbb83c697	-0.0040214765
199	0xbce56ef4	-0.028007008
200	0xbbcf6fc1	-0.006330461
201	0xbc299d09	-0.0103523815
202	0xbc89b585	-0.016810188
203	0x3c53cfaa	0.012927929
204	0x3abe22b5	0.0014506193
205	0xbb8da405	-0.004322531
206	0xbba561d1	-0.005047061
207	0x3c774325	0.015091692
208	0xbce43c26	-0.027860712
209	0xbce9340b	-0.028467199
210	0x3c4df7d7	0.012571297
211	0x3b3cfb15	0.002883618
212	0xbb1397a3	-0.0022520802
213	0x3cb26b60	0.021779716
214	0x3cd7239b	0.026262095
215	0xbd12d404	-0.035846725
216	0x3c3f427e	0.011673568
217	0xbcb5cabf	-0.022191403
218	0x3c89722b	0.016778072
219	0xbc36dfdb	-0.01116177
220	0x3c8df280	0.017327547
221	0xbd7695a1	-0.06020129
222	0xbc653dbf	-0.013991772
223	0x3bb7637a	0.0055965753
224	0x3cb7dcd7	0.022444172
225	0x3c50cf3c	0.012744721
226	0xbbe59ef3	-0.0070074736
227	0xbad25431	-0.001604682
228	0x3c27107c	0.010196801
229	0xbce9685e	-0.028492149
230	0x3d46e454	0.048557594
231	0x3b760d9c	0.0037544733
232	0x3b894145	0.004188689
233	0xbbb3897d	-0.0054790364
234	0xbcf14dc5	-0.029456029
235	0x3cb3e557	0.021959944
236	0xbbd95972	-0.006632977
237	0xbcd31df7	-0.025771124
238	0xbcaed2ef	-0.021340815
239	0xbc095022	-0.008380922
240	0x3cc66c26	0.024221491
241	0xbb248348	-0.0025102664
242	0x3cc8ca1e	0.02451044
243	0xbc3a1c70	-0.011359319
244	0x3c89afdc	0.01680749
245	0xbcbad44a	-0.022806305
246	0x3c570914	0.013124723
247	0x3c90a951	0.017658861
248	0xbb85954b	-0.004076635
249	0xbc30b83a	-0.010786111
250	0x39f05274	0.000458378
251	0x3c912d41	0.017721774
252	0x3c3d9121	0.011570246
253	0x3aec615f	0.001803439
254	0xbc80a24f	-0.015702395
255	0xbcb8955f	-0.022532163

_hidden_layers.1._model.0.weight f4 [256, 256]
0	0xbd3c5ac8	-0.045985013
1	0xbd2641b4	-0.040590003
2	0xba0b9ad9	-0.00053255033
3	0x3e08a3a8	0.1334368
4	0xbb981e3e	-0.004642277
5	0x3cf2236b	0.029557904
6	0x3e2b1217	0.1670612
7	0x3e74ca21	0.23905231
8	0xbc652a25	-0.013987099
9	0xbd1e7c5e	-0.038692825
10	0x3d3f3eaa	0.04669062
11	0xbc8abb3d	-0.016934985
12	0x3de7a2ab	0.11310323
13	0xbe4c3eb0	-0.19945788
14	0x3de9a3eb	0.11408218
15	0x3db9b152	0.09067024
16	0x3b883d21	0.0041576778
17	0x3d59a61a	0.053136922
18	0xbdbe5707	-0.09293943
19	0xbe0df2fa	-0.1386222
20	0x3ea7c572	0.32767826
21	0x3e2e3d45	0.1701556
22	0xbd34b850	-0.044121087
23	0xbe20b811	-0.15695216
24	0x3e12abf7	0.14323412
25	0x3d02df96	0.03195151
26	0xbdbc9e2d	-0.09209857
27	0x3ddad3d9	0.10684938
28	0x3c977a9e	0.018491086
29	0xbe55afcd	-0.20867844
30	0xbd82759c	-0.063700885
31	0xbd72e756	-0.05930265
32	0xbe2dfe1a	-0.16991463
33	0xbe3f215d	-0.18665071
34	0xbd07ce6a	-0.033155836
35	0x3ca6f28d	0.02037933
36	0x3e622b24	0.2208677
37	0x3e3e15a0	0.18562937
38	0x3d357ffe	0.044311516
39	0x3cbbae8e	0.022910383
40	0x3d81956e	0.063273296
41	0x3deb917e	0.1150236
42	0xbcbbe615	-0.02293686
43	0x3db3020c	0.08740625
44	0xbd9e37ef	-0.07725512
45	0x3ce927a7	0.02846129
46	0x3e04f498	0.1298393
47	0xbd960e18	-0.07326907
48	0x3e879044	0.26477253
49	0x3db831cc	0.08993873
50	0x3e6a8109	0.22900786
51	0x3e91aea5	0.28453556
52	0x3e333d96	0.17503962
53	0xbd86bd9c	-0.06579134
54	0x3d09b549	0.033620153
55	0x3cbe9833	0.023265934
56	0x3ab239a3	0.0013597499
57	0xbe21f452	-0.15815857
58	0xbe60466a	-0.21901861
59	0x3b84f8b6	0.004057969
60	0xbba1ef3f	-0.0049418504
61	0x3d269194	0.040666178
62	0x3cfab704	0.030604847
63	0xbd8fe299	-0.07025642
64	0x3ea27343	0.31728563
65	0x3d883a60	0.06651759
66	0x3e98759c	0.2977723
67	0x3e139893	0.14413671
68	0xbe3181ce	-0.17334673
69	0x3d8be4ac	0.06830725
70	0xbe111b4d	-0.1417057
71	0x3e6571af	0.22406648
72	0x3e072ad1	0.13199927
73	0x3db2ec78	0.08736509
74	0xbe57c91d	-0.21072812
75	0x3e0e34cd	0.1388733
76	0x3e13cabc	0.14432806
77	0x3e7f6fcf	0.24944995
78	0xbe0abeca	-0.13549343
79	0x3e844297	0.25832054
80	0x3eb5e18b	0.35523638
81	0xbe2545fe	-0.16139981
82	0x3d511507	0.051045444
83	0xbe26bcb0	-0.16282916
84	0x3c21df8b	0.009879957
85	0xbdcc75d3	-0.09983411
86	0x3ded1070	0.11575401
87	0x3d9d4ad7	0.0768029
88	0x3e8230e8	0.25427938
89	0xbcfa0173	-0.03051827
90	0xbcd74c4f	-0.026281504
91	0x3df01b82	0.11723997
92	0x3c8bee63	0.017081445
93	0xbb2a89f5	-0.002602217
94	0xbea0f86d	-0.31439534
95	0xbddc0fd0	-0.107452035
96	0x3da8d43e	0.08243607
97	0x3cb8bf33	0.022552108
98	0x3da73359	0.08164091
99	0xbcd6e67d	-0.026232952
100	0xbe5398a4	-0.20663697
101	0x3c2a4119	0.010391497
102	0xbe97b47f	-0.29629895
103	0x3dbe59e2	0.092944875
104	0x3e517335	0.20454104
105	0x3e40fc9a	0.1884636
106	0xbdad7802	-0.08470155
107	0x3e1988e0	0.1499362
108	0xbd13d052	-0.03608734
109	0xbe903654	-0.2816645
110	0xbe64a3d1	-0.22328116
111	0xbd15e093	-0.036591124
112	0xbea0a1c3	-0.31373414
113	0xbe98ef10	-0.2986989
114	0xbcc927f5	-0.024555186
115	0xbdd2a98f	-0.10286247
116	0xbda1ee8a	-0.07906826
117	0x3d3c9d36	0.046048366
118	0x3ec721fd	0.38893119
119	0xbde8fdb7	-0.11376517
120	0xbb3ff1db	-0.0029288444
121	0x3bb5728b	0.005537336
122	0xbe187314	-0.14887649
123	0xbc2fa9b8	-0.010721616
124	0xbe8d25af	-0.27567813
125	0xbdb3396a	-0.08751185
126	0xbeade37e	-0.33962625
127	0xbdceaedf	-0.10091948
128	0xbe10e8dd	-0.1415133
129	0xbdc15703	-0.09440424
130	0x3dc2d131	0.09512556
131	0xbe4c3d92	-0.19945362
132	0x3e34d9bd	0.17661186
133	0xbdb9491c	-0.09047148
134	0x3d77e986	0.06052544
135	0x3ccede13	0.025252378
136	0xbe3c6d81	-0.18401147
137	0xbdb5e7ca	-0.08882101
138	0x3d151c42	0.036403902
139	0x3e548942	0.20755485
140	0x3c989b83	0.018628841
141	0x3e230cc8	0.15922844
142	0xbdaeb2a8	-0.0853017
143	0x3d97e50d	0.07416735
144	0xbe0b801a	-0.13623086
145	0x3c586389	0.013207325
146	0x3db412ed	0.08792672
147	0x3de7963e	0.11307953
148	0x3d5b5a6d	0.053553034
149	0x3e94265e	0.28935522
150	0x3da962fb	0.08270832
151	0xbd4d8fe6	-0.05018606
152	0x3e43ac8c	0.1910879
153	0xbd921c5f	-0.071343176
154	0x3e51919e	0.20465705
155	0xbee23190	-0.44178438
156	0xbdf845a4	-0.12122658
157	0xbe5f9eaa	-0.2183787
158	0xbde25965	-0.11052207
159	0x3b384963	0.0028119914
160	0x3dbfab77	0.09358876
161	0xbee76d3f	-0.45200536
162	0xbea1e45c	-0.31619537
163	0x3db17cfa	0.086664155
164	0x3e35746b	0.17720191
165	0x3e10d7d6	0.14144835
166	0xbd8b8f95	-0.068144955
167	0x3da18a07	0.07887655
168	0xbded859c	-0.115977496
169	0xbc74f8e2	-0.014951916
170	0xbc2fa96e	-0.0107215475
171	0xbd4157eb	-0.047202986
172	0x3d6f247e	0.05838441
173	0xbdead050	-0.11465514
174	0xbdabc0dd	-0.08386395
175	0x3d904e86	0.07046227
176	0xbe4fdb4d	-0.202985
177	0xbdfc8024	-0.123291284
178	0x3de95973	0.11394014
179	0xba27aaee	-0.0006396015
180	0x3d921054	0.071320206
181	0xbcb5eba2	-0.022207085
182	0xbd061660	-0.032736182
183	0x3d603312	0.054736204
184	0x3c7d535d	0.01546177
185	0x3d16cf24	0.03681864
186	0xbdd5ac8c	-0.10433301
187	0x3d2f4dae	0.04279869
188	0xbc6d1252	-0.0144697
189	0x3c802704	0.015643604
190	0xbc0b4b02	-0.00850177
191	0x3e3da5e8	0.1852032
192	0x3e160363	0.1464973
193	0xbd6aa234	-0.057283595
194	0x3e6053f2	0.21907023
195	0x3c9b8621	0.018984856
196	0x3cae2e4d	0.021262312
197	0x3e405a13	0.1878436
198	0x3ddcb150	0.10776007
199	0x3e109a49	0.14121355
200	0x3e914e97	0.28380272
201	0xbdb12d8c	-0.086512655
202	0x3df833e1	0.1211927
203	0x38e717c8	0.00011019368
204	0x3df31cf9	0.118707605
205	0x3ec461e3	0.38355932
206	0x3df22274	0.11822978
207	0x3c2eece1	0.0106765935
208	0x3d678d5b	0.05653129
209	0x3db98c4e	0.09059964
210	0x3e16bd6b	0.14720695
211	0xbe3f6fa0	-0.18694925
212	0x3db98e6d	0.09060369
213	0x3d508959	0.050912235
214	0x3e473c66	0.19456634
215	0x3deb3298	0.11484259
216	0xbe12eba3	-0.14347701
217	0x3bc75bb2	0.006083929
218	0xbd598159	-0.05310187
219	0xbe03b9fc	-0.12863916
220	0xbcea3c66	-0.028593253
221	0x3e05e951	0.13077284
222	0xbe62563f	-0.22103213
223	0x3e3f1f2d	0.18664236
224	0x3d2a92cf	0.041643914
225	0xbb00b691	-0.0019640068
226	0x3ea0e91b	0.31427845
227	0x3dc9a909	0.09846694
228	0xbd96e0dc	-0.07367107
229	0x3d9fd6fb	0.07804676
230	0xbdcbfe0e	-0.099605665
231	0xbe53f134	-0.2069748
232	0x3d9f8100	0.07788277
233	0xbd03d27c	-0.032183155
234	0x3de395ae	0.111125335
235	0x3d8a91a8	0.06766063
236	0xbd7711dc	-0.060319766
237	0xbe44ec74	-0.19230825
238	0xbdf45c84	-0.119317085
239	0xbe821c60	-0.25412273
240	0x3e077ff2	0.13232401
241	0xbe7219f5	-0.23642714
242	0xbddebe0c	-0.10876092
243	0x3dfddcb3	0.12395611
244	0x3e1af959	0.15134181
245	0x3cd81e89	0.026381748
246	0xbb549d8a	-0.0032442533
247	0x3d4a0ffc	0.04933165
248	0x3d535cb0	0.051602066
249	0xbe155e39	-0.14586724
250	0x3cec6586	0.028857004
251	0x3dbb91f1	0.091586955
252	0x3d37adf4	0.04484363
253	0x3dbdf4c5	0.09275202
254	0x3e34ba82	0.17649272
255	0x3de61ade	0.11235593

_hidden_layers.1._model.0.bias f4 [256]
0	0x3d6934af	0.05693501
1	0x3c75abfc	0.014994618
2	0x3c0ab602	0.008466246
3	0xbd6acc4b	-0.057323735
4	0xbcc9d554	-0.024637856
5	0xbd104609	-0.03522304
6	0xbd6334a9	-0.055470143
7	0x3c62a7d2	0.013833957
8	0xbcfae6c4	-0.030627616
9	0x3c35dd62	0.011100145
10	0xbe21da81	-0.15806009
11	0x3ae804f6	0.0017701674
12	0x3ca99446	0.020700585
13	0xbe3100ab	-0.17285411
14	0x3d830458	0.06397313
15	0x3d967570	0.07346618
16	0x3d075f56	0.033049904
17	0xbd596e82	-0.053083904
18	0xbd1a7d9c	-0.037717447
19	0xbd28f46e	-0.04124873
20	0x3d7cd28d	0.061724234
21	0x3c85039e	0.016237076
22	0xbd7935fc	-0.0608425
23	0xbc83faa8	-0.016110733
24	0x3c8110c6	0.015755069
25	0x3d6f945a	0.05849109
26	0x3e0c1800	0.1368103
27	0x3c848036	0.016174417
28	0x3d34027e	0.04394769
29	0x3c59b6ef	0.013288244
30	0xbc2e7c6c	-0.010649782
31	0x3d30be06	0.04314997
32	0x3c607013	0.013698596
33	0x3ba764f9	0.0051084724
34	0xbca3a85e	-0.019977745
35	0xbc459816	-0.012060186
36	0xbc5d7fb2	-0.0135192145
37	0x3de2ee92	0.1108066
38	0xbbe18450	-0.006882228
39	0x3cc88ed9	0.024482178
40	0x3d45691f	0.048195954
41	0xbd69df21	-0.057097558
42	0xbd70c4fe	-0.058781616
43	0x3c8e6017	0.017379804
44	0x3d77cec7	0.060499933
45	0xbd51f72a	-0.051261105
46	0x3ce36c7f	0.027761696
47	0x3dde6908	0.10859877
48	0xbd65de9f	-0.05612051
49	0x3c382dca	0.011241386
50	0x3ce60dda	0.028082777
51	0x3dc73425	0.09726743
52	0xbcb258b6	-0.021770816
53	0xbe1c9b30	-0.15293574
54	0xb82831c6	-4.0100676e-05
55	0xbd375a84	-0.044764057
56	0x3d88fbfe	0.06688689
57	0x3d5eb669	0.05437318
58	0x3cd681a0	0.026184857
59	0x3d010883	0.031502258
60	0x3e0755e7	0.13216363
61	0x3dad7592	0.084696904
62	0xbdc1439d	-0.09436724
63	0xbd599918	-0.053124517
64	0x3d01ba9d	0.03167211
65	0xbbc305c7	-0.0059516164
66	0xbd3b9277	-0.045793977
67	0xb9643b50	-0.0002176587
68	0x3ddc1697	0.10746496
69	0x3d1c362e	0.038137607
70	0xbd3b861d	-0.045782197
71	0xbdc5e067	-0.09661942
72	0xbd06c639	-0.032903884
73	0xbdd5c8b1	-0.104386695
74	0xbd6d5914	-0.05794628
75	0xbd01b4fe	-0.03166675
76	0xbd48fe0d	-0.049070407
77	0x3c8e1065	0.017341802
78	0x3ce555e2	0.027995054
79	0x3d72f37c	0.059314236
80	0x3da68fb6	0.081328794
81	0x3d85544c	0.06510219
82	0x3d5aa733	0.05338211
83	0x3c0bffb8	0.008544855
84	0xbc39bf38	-0.011337094
85	0xbd0df790	-0.034659922
86	0xbd8561dc	-0.06512806
87	0xba86f956	-0.0010297697
88	0xbacbf418	-0.0015560417
89	0xbc327b52	-0.01089366
90	0xbd197a70	-0.03747028
91	0xbc7c03e2	-0.015381785
92	0x3e21ebcc	0.15812606
93	0x3c02c49d	0.007981447
94	0x3d2ba4c6	0.041905187
95	0x3dbffa89	0.09373958
96	0xbd33076b	-0.043708246
97	0x3c7b93b9	0.015355044
98	0x3dd29f5b	0.10284301
99	0xbd3b9182	-0.045793064
100	0x3db2a5ff	0.087230675
101	0x3b86dd33	0.0041157245
102	0xbcd730c9	-0.02626838
103	0x3d6b3e03	0.057432186
104	0xbc02cbe4	-0.007983182
105	0x3d8060a8	0.06268436
106	0x3ccbc2f2	0.02487323
107	0xbd8e7fe3	-0.06957986
108	0x3d82ef2f	0.06393277
109	0xbce48107	-0.027893556
110	0xbc8525b3	-0.016253328
111	0xbca05638	-0.019572362
112	0xbc0f48dd	-0.008745399
113	0xbd8ede17	-0.06975954
114	0xbd07a8c7	-0.033119943
115	0x3dcedd36	0.101007864
116	0x3d6e4e2d	0.058180023
117	0x3c9e5556	0.0193278
118	0x3d88d65a	0.06681509
119	0xbdd90eee	-0.10598551
120	0xbddf4d0c	-0.109033674
121	0x3d8c7ab9	0.06859345
122	0xbd286df8	-0.0411205
123	0x3d99e667	0.07514649
124	0xbd7a7959	-0.061150882
125	0x3c33e8f4	0.010980833
126	0x3d73c321	0.05951226
127	0xbda06a29	-0.078327484
128	0xbdbc87a0	-0.09205556
129	0x3d0cead3	0.034403633
130	0xbcf38945	-0.029728541
131	0x3cc1f6fa	0.023677338
132	0xbd808849	-0.06275994
133	0x3d9a4e55	0.07534472
134	0x3ca7ea30	0.020497411
135	0x3dae3c8a	0.08507641
136	0x3bcb1c7c	0.006198464
137	0xbb09462b	-0.0020946364
138	0xbd3c97e1	-0.04604328
139	0x3d1cd56d	0.038289476
140	0x3d3060d4	0.043061092
141	0x3d441ed2	0.047880955
142	0x3dab6b0b	0.08370026
143	0x3d48f919	0.049065683
144	0xbc9bbb39	-0.019010173
145	0x3ba4bdfc	0.0050275307
146	0xbbe1a474	-0.0068860594
147	0x3dc42c9b	0.0957882
148	0x3b3fc46e	0.0029261368
149	0xbce3d12d	-0.027809704
150	0xbc59e665	-0.013299559
151	0x3d4b1069	0.049576197
152	0xbcd6c902	-0.026218895
153	0x3c63088d	0.013857019
154	0x3e20a581	0.15688135
155	0x3d828f19	0.0637495
156	0x3cefc6f4	0.029269673
157	0xbcf9bfd7	-0.030486984
158	0xbc599088	-0.013279088
159	0x3c19371e	0.00935152
160	0xbc181e98	-0.009284638
161	0x3ca1e296	0.019761365
162	0x3d6ef9c0	0.05834365
163	0xbccfe4f8	-0.025377735
164	0xbca88763	-0.02057237
165	0x3db8c703	0.090223335
166	0xbd1bb74d	-0.038016606
167	0x3dbaf7f2	0.09129323
168	0xbd29f247	-0.04149082
169	0x3cbd14f2	0.023081277
170	0xbcfb556e	-0.030680384
171	0xbc98ee92	-0.018668447
172	0x3d033e17	0.032041635
173	0xbd9a5c34	-0.075371176
174	0x3e02001c	0.12695354
175	0x3de06726	0.10957174
176	0x3cdbf126	0.026848387
177	0x3d36add9	0.044599388
178	0xbd667934	-0.056267932
179	0x3d77a1a3	0.060456883
180	0x3d68e57e	0.056859486
181	0x3da21f27	0.07916098
182	0xbc11d6bb	-0.008901293
183	0xbc2a23f2	-0.010384547
184	0xbdbc63ba	-0.09198709
185	0xbc561455	-0.013066371
186	0x3d3f1824	0.04665388
187	0xbe0ab59c	-0.13545841
188	0xbce80426	-0.02832229
189	0xbd17fb97	-0.03710517
190	0xbd7ab22f	-0.061205085
191	0xbbc0d07e	-0.005884229
192	0x3d2d8c92	0.042370386
193	0x3d6a68c2	0.05722881
194	0x3d8a30cf	0.06747591
195	0x3e081fe9	0.13293423
196	0x3d595634	0.053060725
197	0xbd22f355	-0.03978284
198	0x3dcac3de	0.0990064
199	0xbcf4625e	-0.029832061
200	0xbd584f8b	-0.052810233
201	0x3d938810	0.07203686
202	0x3d7f80b3	0.062378597
203	0xbdbc748f	-0.09201919
204	0x3bbd981e	0.005785956
205	0x3cda78f0	0.026668996
206	0x3d14401d	0.036193956
207	0x3cb21f2a	0.021743376
208	0x3c3438f1	0.010999904
209	0x3d849c7e	0.06475161
210	0x3db7aa67	0.089680485
211	0x3c0553dd	0.00813767
212	0x3d1fdc4d	0.039028455
213	0xbd6f360a	-0.058401145
214	0x3b71fcd6	0.0036924384
215	0x3dd842b2	0.10559596
216	0x3cd0c461	0.025484266
217	0x3d3b9a25	0.0458013
218	0xbde14133	-0.10998764
219	0x3d704fe6	0.058669947
220	0x3ca3a913	0.019978082
221	0xbd8ea8a8	-0.069657624
222	0xbc6f787f	-0.014616131
223	0x3d89ff83	0.06738188
224	0xbbfe6345	-0.0077632987
225	0xbced0507	-0.028933061
226	0xbd7bcd6b	-0.0614752
227	0x3dc27f1a	0.09496899
228	0x3c4964cd	0.012292099
229	0xbdc2a39f	-0.095038645
230	0xbd2beb2d	-0.041972328
231	0xbd65f397	-0.05614051
232	0xbbc4bb3b	-0.006003765
233	0xbb5955a4	-0.0033162618
234	0x3d5466f5	0.051856
235	0x3cb69076	0.022285681
236	0x3b732cd6	0.0037105582
237	0xbce4133f	-0.027841209
238	0x3ce7b628	0.028285101
239	0x3dd789cf	0.10524332
240	0xbbf25d5d	-0.0073963837
241	0xbd04a84b	-0.03238706
242	0xbcf17300	-0.029473782
243	0xbdae280e	-0.085037336
244	0xbd2e5d11	-0.042569224
245	0x3cf93df2	0.030425046
246	0x3a91196e	0.0011070201
247	0xbc0c0886	-0.008546954
248	0x3852c8a7	5.0254774e-05
249	0xbdc6b12a	-0.0970176
250	0x3b7a3d98	0.0038183685
251	0xbd76101c	-0.060073957
252	0x3b8fa877	0.0043840962
253	0xbdc2141c	-0.09476492
254	0xbd9b0a8f	-0.07570373
255	0x3dbedaaa	0.093190506

_value_branch_separate.0._model.0.weight f4 [256, 115]
0	0x3dc9dc21	0.098564394
1	0xbefb329a	-0.49062043
2	0xbe313ee0	-0.17309141
3	0x3de94b9d	0.11391375
4	0x3e8f791b	0.28022084
5	0xbd97d057	-0.074127845
6	0x3e3e3734	0.18575746
7	0xbd4e9349	-0.05043343
8	0x3ea82484	0.3284036
9	0x3d0aa98e	0.033853106
10	0xbe0031b4	-0.1251896
11	0x3e19a1a8	0.15003073
12	0xbe01f9e1	-0.12692977
13	0xbcb8de0f	-0.022566823
14	0x3d07175a	0.032981254
15	0xbe1e9861	-0.15487815
16	0x3dd28c42	0.10280658
17	0xbe0c7dfd	-0.13719936
18	0x3dd994e0	0.10624099
19	0xbd5237d2	-0.051322766
20	0x3d132ed9	0.03593335
21	0x3d7dc8b0	0.06195897
22	0xbdb2a789	-0.08723361
23	0xbec495ba	-0.38395482
24	0xbbd7e1dc	-0.006588204
25	0x3ea7120c	0.32630956
26	0x3df0d62a	0.117595986
27	0x3e0b58f0	0.13608146
28	0x3ecb37a1	0.3969088
29	0x3e19547b	0.14973633
30	0x3e5d02b7	0.21583067
31	0x3e636172	0.22205141
32	0xbc5f62ec	-0.013634425
33	0xbdc91444	-0.098183185
34	0xbdc22077	-0.094788484
35	0x3c753854	0.014967043
36	0xbbd797ef	-0.006579391
37	0x3dc179b5	0.09447042
38	0xbe834b81	-0.25643542
39	0xbd474eac	-0.04865901
40	0xbbb06302	-0.0053828964
41	0x3c17155b	0.0092214
42	0xbd03013f	-0.03198361
43	0xbe67a7cc	-0.22622603
44	0xbd8fed12	-0.070276394
45	0xbe2cc27d	-0.16871066
46	0x3cd1e2eb	0.025620898
47	0x3df63003	0.12020876
48	0x3e3b7e63	0.18309931
49	0xbe431b66	-0.1905342
50	0x3eba1c93	0.36349925
51	0xbe2a2edf	-0.16619442
52	0x3c8ff8b3	0.017574644
53	0xbe03ad17	-0.12858997
54	0x3e2d0f40	0.16900349
55	0x3d35a589	0.04434732
56	0x3c71414e	0.0147250425
57	0xbe197a8e	-0.14988157
58	0xbe6efbda	-0.23338261
59	0xbdd63230	-0.10458791
60	0x3c755b2d	0.014975351
61	0xbdd4bc46	-0.10387473
62	0xbe0d1d4b	-0.13780706
63	0xbe22287d	-0.15835758
64	0xbdeaa86c	-0.11457905
65	0xbe4258ec	-0.18979234
66	0x3ea96d68	0.33091283
67	0xbd03f3c5	-0.0322149
68	0x3d0b0f34	0.033950046
69	0x3e5af7f4	0.21383649
70	0xbd05541e	-0.032550924
71	0xbe6a86dc	-0.22903007
72	0x3ea42edb	0.32066998
73	0x3e09e723	0.13467078
74	0xbe84bb39	-0.2592409
75	0xbf0d54ed	-0.5520771
76	0x3d993340	0.07480478
77	0xbd5309d0	-0.05152303
78	0xbdab3c1a	-0.08361073
79	0x3d1ba1ab	0.037995975
80	0x3e19615f	0.1497855
81	0xbc6698fe	-0.014074562
82	0xbe04466f	-0.12917493
83	0xbd06fd18	-0.032956213
84	0xbe11f72e	-0.14254448
85	0x3c59cd6f	0.013293608
86	0xbe2e5ae3	-0.17026858
87	0xbe5d16f6	-0.2159079
88	0xbe582892	-0.21109226
89	0xbe4378d4	-0.19089061
90	0xbd1850a8	-0.037186295
91	0x3db6b0ad	0.08920417
92	0xbd9d20e8	-0.07672292
93	0xbb72077c	-0.003693073
94	0x3d478c84	0.04871799
95	0x3d259ee2	0.040434726
96	0x3d9adc21	0.075615175
97	0x3ac73ead	0.0015201174
98	0x3cd47be2	0.025937978
99	0x3cd0218f	0.025406627
100	0x3cfcd6ef	0.030864207
101	0x3c255047	0.01008994
102	0xbe00c805	-0.12576301
103	0x3c17c1b0	0.009262487
104	0xbc460f81	-0.012088657
105	0x3c1d4397	0.009598634
106	0x3d860f15	0.065458454
107	0xbdd53d19	-0.10412044
108	0x3e0fc666	0.14040527
109	0xbdf89cdd	-0.12139294
110	0x3da66586	0.08124833
111	0xbd65f245	-0.05613925
112	0xbdecae5c	-0.11556694
113	0xbc3dc5d1	-0.011582808
114	0x3d3a2614	0.04544647
115	0xbc8a1ba7	-0.016858889
116	0x3e06fd7e	0.13182637
117	0x3e722503	0.23646931
118	0xbe838598	-0.2568786
119	0x3e82a6f8	0.25518012
120	0x3e40859f	0.18800972
121	0xba8fa7b9	-0.001096002
122	0xbc37429c	-0.0111853145
123	0xbcabca85	-0.020970592
124	0xbd7c92ca	-0.061663426
125	0xbe0943c1	-0.13404752
126	0xbcc783c9	-0.024354832
127	0xbc582dd3	-0.013194519
128	0xbd6d752d	-0.057973076
129	0x3d702cce	0.05863648
130	0x3c5e5839	0.013570839
131	0xbd2f6976	-0.042825185
132	0x3e197d49	0.14989199
133	0xbdc7f7e6	-0.0976408
134	0xbd8620bb	-0.065492116
135	0xbdd4eb49	-0.103964396
136	0x3d770026	0.060302876
137	0xbdebd384	-0.11514953
138	0x3c6f5ea5	0.014609967
139	0xbcd009b3	-0.02539525
140	0xbd9707f4	-0.07374564
141	0x3c206d08	0.00979162
142	0x3d7a1681	0.061056618
143	0x3e75148f	0.23933624
144	0x3c19a73a	0.009378249
145	0x3da36bbf	0.07979535
146	0x3e90428d	0.28175774
147	0x3dcc2fbf	0.09970044
148	0xbd838eeb	-0.06423744
149	0xbd959e78	-0.07305616
150	0x3c8e236b	0.017350873
151	0xbd9703f4	-0.07373801
152	0xbd600a7e	-0.054697506
153	0x3e1a4c00	0.15068054
154	0x3d3b8e37	0.045789924
155	0x3ddd5c5f	0.10808634
156	0x3d4fb304	0.050707832
157	0xbd0075a0	-0.031362176
158	0x3db8da48	0.09026009
159	0xbdbf051a	-0.09327145
160	0xbe683cc4	-0.2267943
161	0xbe3baa9a	-0.18326798
162	0xbe1c19c5	-0.15244205
163	0xbc2a16bb	-0.010381396
164	0x3cb0334c	0.021508835
165	0x3ded1b9d	0.115775324
166	0x3e5256f8	0.20540988
167	0xbd240a85	-0.040049095
168	0x3e010932	0.12601164
169	0x3e555ded	0.20836611
170	0xbd929484	-0.07157233
171	0x3d84ce74	0.0648469
172	0xbca9bf36	-0.02072106
173	0xbd8530bb	-0.06503435
174	0x3c41f1b4	0.011837412
175	0x3e00cb20	0.12577486
176	0xbd146ad0	-0.036234677
177	0x3e0f5e35	0.14000781
178	0xbc38e45e	-0.011284916
179	0x3bd5d3a3	0.006525473
180	0xbe4ccca3	-0.19999938
181	0xbda991e9	-0.08279783
182	0x3e72ab04	0.2369805
183	0xbde9da26	-0.11418562
184	0x3d740eb9	0.059584353
185	0xbe4da504	-0.2008248
186	0xbe3ae713	-0.1825221
187	0x3bcece70	0.0063112304
188	0x3ddee77f	0.10883998
189	0x3e6d7c0f	0.23191856
190	0xbccc393c	-0.024929635
191	0x3e404510	0.18776345
192	0x3d1a1825	0.037620682
193	0xbd930193	-0.07178035
194	0x3dbc6033	0.09198036
195	0xbe0daff2	-0.13836649
196	0x3d468e41	0.048475508
197	0x3e04f065	0.12982328
198	0x3ced4d83	0.028967625
199	0x3dbc857d	0.09205148
200	0x3ded2700	0.11579704
201	0xbe140a6e	-0.14457104
202	0x3e6e3cc5	0.23265369
203	0xbc8c0e2d	-0.017096603
204	0x3e360bd1	0.17777945
205	0x3cfe1de9	0.031020122
206	0x3e63ff32	0.22265318
207	0x3f1e6754	0.61876416
208	0xbd14ff4f	-0.036376294
209	0x3bd390c2	0.0064564655
210	0xbe00414d	-0.1252491
211	0x3da0e2f4	0.07855788
212	0xbe3dad82	-0.18523219
213	0xbb5ad9f9	-0.0033394082
214	0x3c89dc95	0.016828815
215	0xbc8eca57	-0.017430468
216	0xbc40bfc8	-0.011764474
217	0x3e139b75	0.14414771
218	0xbc8a9385	-0.016916046
219	0x3d1616c8	0.03664282
220	0xbdccae83	-0.09994223
221	0x3d5b4e8f	0.053541716
222	0x3d17900b	0.037002604
223	0x3d89ce7c	0.06728837
224	0x3d9cbb7c	0.07652947
225	0x3cfe5d99	0.03105049
226	0x3e053ff2	0.13012674
227	0xbd9947bd	-0.07484386
228	0x3c5986e9	0.013276794
229	0x3cca3328	0.024682596
230	0xbc3aefaa	-0.011409679
231	0x3d8e0279	0.06934065
232	0x3e3d9667	0.18514405
233	0x3e075aa4	0.1321817
234	0xbd78a436	-0.06070348
235	0x3f16b54f	0.58870405
236	0xbc575087	-0.013141758
237	0xbdf6330f	-0.120214574
238	0x3e2be74a	0.16787449
239	0x3e0bbf0a	0.13647094
240	0x3cf7b2cb	0.030236622
241	0xbbd93448	-0.006628547
242	0x3d8accfe	0.067773804
243	0x3d2d32ed	0.042284895
244	0xbd565f76	-0.052337132
245	0x3de17e35	0.110104
246	0xbdd5d149	-0.104403086
247	0xbd7268ad	-0.059181858
248	0xbb338381	-0.0027391615
249	0xbe576a5b	-0.21036665
250	0xbe4d4a3b	-0.20047848
251	0xbdad28bb	-0.08455034
252	0x3ef9e538	0.48807693
253	0x3e37a77b	0.17934982
254	0xbd7393fb	-0.059467297
255	0xbe1589a7	-0.14603291

_value_branch_separate.0._model.0.bias f4 [256]
0	0x3d40108e	0.046890788
1	0xbb9854af	-0.004648767
2	0x3d08ce1a	0.03339968
3	0xbc9e3f50	-0.0193173
4	0xbc8ff457	-0.017572565
5	0x3c9d592e	0.019207563
6	0xbd41e4fe	-0.047337525
7	0x3a603379	0.0008552592
8	0x3ca34507	0.019930376
9	0xbcb203b9	-0.02173029
10	0xbcd74497	-0.026277823
11	0x3cdd124f	0.02698627
12	0xbd104793	-0.03522451
13	0x3c016e42	0.007899823
14	0x3d05b290	0.032640994
15	0xbd278d93	-0.0409065
16	0xbc4415b0	-0.011968061
17	0xbd638b8a	-0.055552997
18	0x3b9916e1	0.004671917
19	0x3cdecd02	0.027197365
20	0xbd22e6e6	-0.039770983
21	0xbae66e3f	-0.0017580463
22	0x3cee6f79	0.029105889
23	0x3c1dbc54	0.00962742
24	0xbd0229c2	-0.031778105
25	0xbcfcb6b4	-0.030848838
26	0xbd2045c6	-0.03912904
27	0x3bb7b52c	0.005606314
28	0x3cbdafc9	0.02315511
29	0x3d16c437	0.03680822
30	0x3ca577c5	0.020198712
31	0x3b7ed6e4	0.003888541
32	0xbd0106a4	-0.031500474
33	0x3c87c58b	0.016573688
34	0xbce9efb3	-0.02855668
35	0x3d168b6b	0.036754053
36	0xb9217b60	-0.00015400117
37	0x3b6707a6	0.0035252362
38	0x3ce5214e	0.027969982
39	0x3cbc2aa1	0.022969546
40	0xbd3fe0e2	-0.046845324
41	0xbc0fce52	-0.008777218
42	0xbb971c60	-0.004611537
43	0xbbfc5b15	-0.0077012875
44	0xbccc04db	-0.024904659
45	0xbba4ff51	-0.005035319
46	0x3c393e87	0.011306412
47	0xbbcf5556	-0.0063273115
48	0x3d46f5fe	0.04857444
49	0xbc7a58cd	-0.015279961
50	0xbbf94afa	-0.007607815
51	0xbcc8f235	-0.024529556
52	0xbd4b1101	-0.049576763
53	0x3cd8add9	0.026450085
54	0x3b796aa1	0.003805794
55	0xbcbebe8f	-0.023284225
56	0x3d204e5e	0.039137237
57	0x3c4b6b92	0.0124157835
58	0xba518a64	-0.0007993339
59	0x3cd6ce52	0.026221428
60	0xbd04ce0d	-0.032423068
61	0x3c58f614	0.013242263
62	0x3d204ab3	0.03913374
63	0x3db0d1f1	0.08633793
64	0x3d14a5cc	0.03629093
65	0x3b3840a2	0.0028114696
66	0xbba26e82	-0.004957021
67	0x3d576ed1	0.052595917
68	0x3ac404e9	0.0014955077
69	0xbc0eff3f	-0.008727848
70	0xbc80f01e	-0.015739497
71	0xba9a80da	-0.0011787668
72	0x3c493769	0.012281277
73	0xbca2179b	-0.019786647
74	0x3d2b3ef6	0.04180809
75	0xbd15d11b	-0.03657637
76	0xbae05938	-0.0017116433
77	0xbcf8db6c	-0.030378066
78	0x3d244a25	0.040109772
79	0x3c86f988	0.016476408
80	0x3d8c38fc	0.068468064
81	0xbcda72de	-0.026666101
82	0x3b6cc64e	0.003612894
83	0xbc83ab22	-0.016072813
84	0xbb9dd22a	-0.0048163133
85	0x3cb54e62	0.022132102
86	0x3da45bff	0.08025359
87	0xbce9e288	-0.028550401
88	0x3c755e4d	0.014976096
89	0x3cfddff6	0.030990582
90	0xbca9b783	-0.020717388
91	0x3bba8247	0.0056918
92	0x3c0ce921	0.008600504
93	0xbd8a5705	-0.06754879
94	0xbc51a94b	-0.01279671
95	0xbac28817	-0.0014841583
96	0xbc86aee9	-0.016440826
97	0x3d8a4a10	0.067524076
98	0xbcdb6ca2	-0.026785199
99	0x3b8bc646	0.0042655794
100	0x3baac62a	0.0052116113
101	0x3d107610	0.035268843
102	0xbbcdfba3	-0.006286101
103	0x3d801e4d	0.062557794
104	0xbcb7c124	-0.022430964
105	0x3c3b9fe7	0.011451698
106	0x3d25b608	0.0404568
107	0x3d3b075a	0.045661308
108	0xbce8cef6	-0.028419
109	0x3d2408ea	0.040047564
110	0x3d21c4f3	0.039494466
111	0xbd32dfe5	-0.043670554
112	0xbcb8ac00	-0.022542953
113	0x3baba71b	0.0052384264
114	0xbbf04800	-0.007332802
115	0xbcd9ea89	-0.026601093
116	0xbcee0d6b	-0.029059133
117	0xbcaf9807	-0.021434797
118	0xbd64efc2	-0.055892713
119	0x3c009724	0.007848535
120	0x3cfb92e8	0.030709699
121	0x3d754076	0.059875928
122	0x3cdd025a	0.02697866
123	0xbcf8ffaf	-0.030395357
124	0x3d687c61	0.056759242
125	0xbd13780c	-0.036003157
126	0x3a9f1c51	0.0012139176
127	0x3d038bd6	0.03211578
128	0xbccb6cf9	-0.024832236
129	0xbd3c2847	-0.04593685
130	0xbd5f376c	-0.054496214
131	0xbb88a648	-0.004170213
132	0xbbb515b8	-0.0055262707
133	0xbc04bcfe	-0.0081017
134	0x3b866ecf	0.004102565
135	0xbd215f7e	-0.03939771
136	0x3d02e0c9	0.031952653
137	0xbc03df72	-0.008048879
138	0xbd2041ac	-0.03912513
139	0xbc043c71	-0.008071051
140	0x3d3245e8	0.0435237
141	0xbc41e99f	-0.011835485
142	0xbd38cf9e	-0.045119874
143	0xbb9e487c	-0.004830418
144	0x3ada6473	0.0016662016
145	0xbc7ed7de	-0.015554396
146	0xbc922385	-0.017839203
147	0x3be68c1e	0.0070357462
148	0xbc0b6b1e	-0.008509425
149	0xbbc097a2	-0.005877451
150	0xba7b3ef5	-0.00095842715
151	0x3b82efba	0.003995863
152	0xbd2a953f	-0.04164624
153	0x3cb79cc6	0.022413623
154	0x3ce85fee	0.028366055
155	0xbcb513c4	-0.022104152
156	0x3d17df15	0.037077982
157	0x3aec8e34	0.0018047751
158	0x3ceb7144	0.028740533
159	0xbcef3410	-0.02919963
160	0x3c9af11a	0.018913794
161	0x3c14da9a	0.009085322
162	0xbd446563	-0.047948252
163	0xbbb487b7	-0.0055093425
164	0xbc1860cf	-0.009300425
165	0x3cb3869f	0.021914778
166	0xbc56e277	-0.013115517
167	0xbcb4c573	-0.022066807
168	0x3ca7173a	0.020396817
169	0x3bc47f6f	0.0059966366
170	0x3cbe16a8	0.023204163
171	0xbca08b4d	-0.019597674
172	0xbb44dc52	-0.0030038548
173	0xbca8e58a	-0.020617265
174	0xb9dd544b	-0.00042215208
175	0x3d2fbbc0	0.04290366
176	0x3d584285	0.052797813
177	0x3cce898e	0.025212076
178	0xbceb1e3e	-0.028700944
179	0x3c82153f	0.015879272
180	0x3c6a3d71	0.014296875
181	0x3d2413e8	0.040058047
182	0xbcfa9d86	-0.030592691
183	0xbcb2ac33	-0.021810627
184	0x3d57a98c	0.052651927
185	0x3cee39b3	0.029080248
186	0x3c8f4de5	0.017493198
187	0x3c28e0c2	0.010307493
188	0xbd1fb5ab	-0.03899161
189	0x3bdbc8e7	0.006707299
190	0x3d273ee3	0.040831458
191	0xbce393d6	-0.027780455
192	0xbd691f5f	-0.056914683
193	0xbd571649	-0.052511487
194	0xbceaacd2	-0.02864686
195	0xbc82f45f	-0.015985666
196	0x3c86e4b0	0.016466469
197	0xbc1c80f6	-0.009552231
198	0x3b820bd4	0.003968695
199	0x3cb90e9b	0.022589972
200	0x3bfa5d52	0.007640519
201	0x3c7196c5	0.014745419
202	0x3c0c800c	0.008575451
203	0x3c1e6fe4	0.0096702315
204	0x3c99270f	0.018695382
205	0xbd4a45f3	-0.049383115
206	0xbaf0e2c3	-0.0018378127
207	0xbd14a5e8	-0.036291033
208	0xbcc90ef5	-0.024543265
209	0x3d038575	0.032109696
210	0xbd06b3b1	-0.03288621
211	0xbd7bcbc3	-0.06147362
212	0x3c3f8cfd	0.011691329
213	0xbbd1bdd6	-0.006400804
214	0x3d33aef9	0.04386804
215	0xbd112a34	-0.03544064
216	0xbc4a5235	-0.012348701
217	0x3d941bf0	0.07231891
218	0x3ce4b594	0.027918614
219	0x3cf5a6d2	0.029986773
220	0xbd7ab985	-0.06121208
221	0x3cd98802	0.026554111
222	0xbcd04dc4	-0.025427707
223	0x3d333520	0.043751836
224	0xbb8f5c62	-0.0043750266
225	0x3cca7a32	0.02471647
226	0xbc64f0c5	-0.01397342
227	0x3c87b976	0.016567927
228	0xbda2cb59	-0.07948942
229	0xbd21e102	-0.039521225
230	0x3cdf94e9	0.027292686
231	0xbd2340f3	-0.039856862
232	0x3bd8f71f	0.006621256
233	0xbd1edc36	-0.03878423
234	0xbc959c44	-0.01826299
235	0x3d74c689	0.05975965
236	0xbd4448f1	-0.047921125
237	0xbd4d8aac	-0.050181076
238	0xbbb3283c	-0.005467443
239	0x3cfc2d9b	0.030783465
240	0x3b285073	0.0025682717
241	0xbcd39169	-0.025826173
242	0xbc048927	-0.00808934
243	0x3c306161	0.010765404
244	0x3c598efb	0.013278718
245	0x3c8adc40	0.016950727
246	0x3c13069b	0.008973743
247	0xbca12ae5	-0.019673774
248	0xbcce4815	-0.025180856
249	0xbd246c7d	-0.040142525
250	0x3c374888	0.011186726
251	0xbc93b608	-0.018031135
252	0xbcb349b5	-0.021885732
253	0x3d1fd1f3	0.039018583
254	0x3c9f59c1	0.019451978
255	0xbc705012	-0.014667528
